BlazeDetectionSample/Face/Assets/Models/blaze_face_short_range.onnx (onnx, 418465 bytes, 70 tensors)

const_fold_opt__487 f4 [56, 1, 3, 3]
000000 00 e0 bb 3f 00 00 01 40 00 40 b0 be 00 c0 bf 3f
       1.4677734 2.015625 -0.34423828 1.4980469
000010 00 e0 04 bf 00 00 4a bf 00 40 36 3f 00 c0 2f be
       -0.51904297 -0.7890625 0.71191406 -0.17163086
000020 00 40 ca 3e 00 c0 20 3e 00 c0 ba 3d 00 40 26 3e
       0.39501953 0.15698242 0.09118652 0.16235352
000030 00 e0 89 3f 00 60 21 3d 00 e0 66 3e 00 00 61 3f
       1.0771484 0.039398193 0.22546387 0.87890625
000040 00 40 51 3f 00 a0 2e 3e 00 e0 51 3e 00 c0 1b 3e
       0.8173828 0.17053223 0.20495605 0.15209961
000050 00 c0 80 bf 00 60 bc 3e 00 40 b2 3f 00 e0 d0 bf
       -1.0058594 0.36791992 1.3925781 -1.6318359
000060 00 20 b9 3d 00 60 56 3e 00 20 0d bf 00 60 3c 3e
       0.09039307 0.20935059 -0.55126953 0.18395996
000070 00 00 80 3f 00 20 dd 3e 00 e0 c0 be 00 20 0a 3f
       1.0 0.43188477 -0.37670898 0.5395508
000080 00 e0 55 3f 00 20 18 bf 00 40 3c bf 00 40 43 3e
       0.8354492 -0.5942383 -0.73535156 0.19067383
000090 00 e0 84 bd 00 20 61 3e 00 a0 81 3e 00 c0 ee 3c
       -0.06488037 0.21984863 0.25317383 0.029144287
0000a0 00 c0 ff 3f 00 60 81 3e 00 80 cf 3e 00 00 66 3e
       1.9980469 0.25268555 0.40527344 0.22460938
0000b0 00 e0 8c 3f 00 20 8a 3f 00 00 bd 3f 00 e0 84 3f
       1.1005859 1.0791016 1.4765625 1.0380859
0000c0 00 a0 c2 bc 00 20 5a bf 00 20 0c 3f 00 00 1b 3e
       -0.023757935 -0.8520508 0.5473633 0.15136719
0000d0 00 a0 91 3e 00 60 ef 3e 00 40 ae 3e 00 80 9b 3f
       0.28442383 0.4675293 0.34033203 1.2148438
0000e0 00 00 c1 be 00 60 ea be 00 00 19 bf 00 a0 a7 be
       -0.37695312 -0.45776367 -0.59765625 -0.32739258
0000f0 00 60 28 be 00 20 5b bf 00 c0 82 be 00 c0 94 3f
       -0.16442871 -0.85595703 -0.2553711 1.1621094
000100 00 80 62 3f 00 80 b8 3e 00 40 00 40 00 c0 ef 3f
       0.8847656 0.36035156 2.0039062 1.8730469
000110 00 c0 8f be 00 c0 b0 3e 00 60 f8 be 00 e0 98 be
       -0.28076172 0.34521484 -0.48510742 -0.29858398
000120 00 40 fd be 00 80 c4 bf 00 a0 9a be 00 40 ca bd
       -0.4946289 -1.5351562 -0.30200195 -0.09875488
000130 00 c0 fa 3f 00 20 7a 3f 00 80 9f 3e 00 00 6d 3f
       1.9589844 0.9770508 0.31152344 0.92578125
000140 00 c0 67 3e 00 c0 44 3f 00 a0 a5 bc 00 a0 16 3f
       0.22631836 0.7685547 -0.020217896 0.5883789
000150 00 80 03 3f 00 20 2e 3f 00 40 ed 3e 00 40 90 3f
       0.5136719 0.6801758 0.4633789 1.1269531
000160 00 60 21 3f 00 a0 45 3f 00 00 62 3f 00 a0 c2 be
       0.6303711 0.77197266 0.8828125 -0.38012695
000170 00 c0 79 bf 00 c0 85 3e 00 e0 1e 3e 00 a0 c5 bf
       -0.97558594 0.26123047 0.15515137 -1.5439453
000180 00 c0 0f bf 00 e0 d8 be 00 e0 91 bd 00 e0 40 3f
       -0.56152344 -0.42358398 -0.07122803 0.75341797
000190 00 80 b2 bf 00 00 72 be 00 40 79 bd 00 60 b5 bf
       -1.3945312 -0.23632812 -0.06085205 -1.4169922
0001a0 00 40 71 be 00 00 8a bd 00 80 6c 3c 00 c0 8b bc
       -0.2355957 -0.06738281 0.014434814 -0.017059326
0001b0 00 40 45 bf 00 00 96 bd 00 e0 d3 bf 00 60 a9 be
       -0.7705078 -0.07324219 -1.6552734 -0.33081055
0001c0 00 c0 09 3e 00 c0 08 bf 00 80 01 3f 00 20 d0 3e
       0.13452148 -0.5341797 0.5058594 0.40649414
0001d0 00 80 b1 3e 00 e0 76 bf 00 a0 cb 3e 00 60 b4 3d
       0.3466797 -0.96435547 0.39770508 0.08807373
0001e0 00 e0 76 bf 00 a0 2b be 00 c0 c0 be 00 e0 0c bf
       -0.96435547 -0.16760254 -0.37646484 -0.55029297
0001f0 00 e0 03 bf 00 00 1e be 00 00 af 3e 00 40 07 3f
       -0.5151367 -0.15429688 0.34179688 0.5283203
000200 00 e0 3c 3e 00 e0 ea 3e 00 c0 fb 3f 00 00 b1 3e
       0.18444824 0.45874023 1.9667969 0.34570312
000210 00 20 a4 3e 00 40 b1 3e 00 a0 d2 3d 00 80 3c 39
       0.32055664 0.3461914 0.10284424 0.00017976761
000220 00 20 b4 bd 00 20 c2 3d 00 c0 dd 3e 00 c0 10 40
       -0.08795166 0.0947876 0.43310547 2.2617188
000230 00 e0 95 be 00 20 2f be 00 e0 b3 3e 00 20 9b be
       -0.2927246 -0.17102051 0.35131836 -0.30297852
000240 00 20 46 be 00 e0 d7 bf 00 80 29 bf 00 40 2c 3f
       -0.19348145 -1.6865234 -0.6621094 0.67285156
000250 00 a0 a7 be 00 40 29 bf 00 80 e8 3e 00 e0 4c 3f
       -0.32739258 -0.6611328 0.45410156 0.80029297
000260 00 c0 87 bc 00 60 bc 3c 00 80 15 bf 00 c0 3b 3d
       -0.016571045 0.022994995 -0.5839844 0.045837402
000270 00 00 d5 bb 00 40 45 40 00 80 f3 3d 00 40 d6 3e
       -0.006500244 3.0820312 0.118896484 0.41845703
000280 00 c0 86 3f 00 e0 af 3e 00 20 cc 3e 00 00 74 3f
       1.0527344 0.34350586 0.39868164 0.953125
000290 00 00 50 3f 00 e0 b0 3d 00 80 2f 40 00 00 01 40
       0.8125 0.086364746 2.7421875 2.015625
0002a0 00 a0 12 bf 00 00 52 be 00 a0 18 3f 00 80 9b 3f
       -0.5727539 -0.20507812 0.5961914 1.2148438
0002b0 00 e0 00 bd 00 40 13 bf 00 60 20 3f 00 c0 14 3f
       -0.031463623 -0.5751953 0.62646484 0.5810547
0002c0 00 40 9c bf 00 40 a6 bd 00 40 66 bf 00 60 7e bf
       -1.2207031 -0.08117676 -0.89941406 -0.99365234
0002d0 00 40 19 3e 00 40 a5 be 00 40 11 be 00 a0 8f 3f
       0.1496582 -0.3227539 -0.1418457 1.1220703
0002e0 00 a0 b4 3d 00 40 1a bf 00 a0 93 3f 00 c0 b9 3f
       0.0881958 -0.60253906 1.1533203 1.4511719
0002f0 00 a0 80 3f 00 c0 2f 3d 00 00 3f 3f 00 e0 81 3f
       1.0048828 0.042907715 0.74609375 1.0146484
000300 00 a0 28 be 00 c0 b9 bf 00 40 10 3f 00 40 df be
       -0.16467285 -1.4511719 0.56347656 -0.43603516
000310 00 a0 6b be 00 80 0a 3e 00 a0 ff be 00 e0 4a 3f
       -0.23010254 0.1352539 -0.49926758 0.79248047
000320 00 a0 99 3f 00 20 a8 bd 00 60 b9 bf 00 40 66 3f
       1.2001953 -0.082092285 -1.4482422 0.89941406
000330 00 e0 d8 be 00 a0 0e bf 00 20 4d 3e 00 20 74 bd
       -0.42358398 -0.5571289 0.20031738 -0.05960083
000340 00 c0 b8 bf 00 c0 68 bf 00 80 ca 3d 00 a0 a6 bf
       -1.4433594 -0.9091797 0.09887695 -1.3017578
000350 00 60 2c bd 00 c0 de be 00 60 9f be 00 a0 63 be
       -0.04208374 -0.4350586 -0.3112793 -0.22229004
000360 00 c0 7e 3d 00 e0 66 be 00 80 52 3d 00 40 d0 3e
       0.062194824 -0.22546387 0.0513916 0.40673828
000370 00 a0 61 c0 00 00 97 be 00 e0 47 bc 00 c0 18 be
       -3.5253906 -0.29492188 -0.012199402 -0.14916992
000380 00 80 8a bc 00 c0 32 3f 00 e0 3f be 00 c0 05 3f
       -0.016906738 0.6982422 -0.18737793 0.52246094
000390 00 c0 2f 3f 00 80 73 be 00 60 8a bf 00 c0 42 3f
       0.68652344 -0.23779297 -1.0810547 0.7607422
0003a0 00 60 18 3e 00 20 c1 be 00 80 73 3f 00 a0 e1 3f
       0.14880371 -0.37719727 0.9511719 1.7626953
0003b0 00 60 bb 3e 00 00 9c 3e 00 00 8f 3f 00 00 8e 3e
       0.3659668 0.3046875 1.1171875 0.27734375
0003c0 00 40 00 be 00 e0 1a bf 00 e0 aa bd 00 40 8d 3e
       -0.12524414 -0.60498047 -0.08343506 0.2758789
0003d0 00 60 bb 3d 00 00 93 be 00 00 e7 bd 00 00 82 bf
       0.0914917 -0.28710938 -0.11279297 -1.015625
0003e0 00 60 5a 3d 00 00 88 be 00 40 a2 bf 00 a0 be bf
       0.05331421 -0.265625 -1.2675781 -1.4892578
0003f0 00 40 00 be 00 80 88 3e 00 40 c9 3e 00 e0 63 bf
       -0.12524414 0.26660156 0.3930664 -0.8901367

const_fold_opt__484 f4 [96, 1, 3, 3]
000000 00 e0 a9 be 00 40 53 40 00 80 e6 bf 00 60 00 40
       -0.3317871 3.3007812 -1.8007812 2.0058594
000010 00 c0 a5 40 00 20 27 c0 00 a0 14 bf 00 60 a5 3e
       5.1796875 -2.6113281 -0.5805664 0.32299805
000020 00 80 1d bf 00 a0 db 3c 00 e0 60 bf 00 40 0c bf
       -0.6152344 0.026809692 -0.87841797 -0.54785156
000030 00 c0 8f bf 00 40 b0 bf 00 80 b6 bf 00 40 cd 3e
       -1.1230469 -1.3769531 -1.4257812 0.4008789
000040 00 60 5e be 00 80 f7 bd 00 80 e1 bf 00 80 b2 bf
       -0.21716309 -0.12084961 -1.7617188 -1.3945312
000050 00 00 d0 bf 00 40 f8 bf 00 a0 48 bf 00 60 a8 bd
       -1.625 -1.9394531 -0.7836914 -0.082214355
000060 00 20 fd bf 00 60 c6 3f 00 80 d2 bf 00 20 41 be
       -1.9775391 1.5498047 -1.6445312 -0.18859863
000070 00 40 92 3e 00 20 d3 bf 00 40 ac be 00 e0 23 40
       0.28564453 -1.6494141 -0.33642578 2.5605469
000080 00 20 05 c0 00 e0 e2 be 00 00 b5 be 00 40 6b bf
       -2.0800781 -0.44311523 -0.35351562 -0.9189453
000090 00 60 a3 bf 00 80 9f be 00 e0 a0 be 00 a0 f0 bf
       -1.2763672 -0.31152344 -0.31420898 -1.8798828
0000a0 00 e0 ca bf 00 60 bd bf 00 e0 b8 bf 00 20 f1 bf
       -1.5849609 -1.4794922 -1.4443359 -1.8837891
0000b0 00 c0 f5 bf 00 c0 60 3f 00 60 39 3f 00 40 75 3f
       -1.9199219 0.8779297 0.7241211 0.9580078
0000c0 00 00 21 bd 00 a0 b8 3f 00 60 54 3e 00 20 44 be
       -0.03930664 1.4423828 0.20739746 -0.19152832
0000d0 00 20 83 3e 00 20 c1 be 00 00 76 be 00 00 74 3f
       0.25610352 -0.37719727 -0.24023438 0.953125
0000e0 00 60 b8 be 00 c0 0b c0 00 a0 0d 40 00 20 ed 3c
       -0.36010742 -2.1835938 2.2128906 0.028945923
0000f0 00 a0 ee bf 00 60 c3 bf 00 a0 93 3e 00 e0 5e be
       -1.8642578 -1.5263672 0.28833008 -0.21765137
000100 00 20 0b 3d 00 e0 87 39 00 20 fc be 00 c0 0d 40
       0.033966064 0.000259161 -0.49243164 2.2148438
000110 00 80 d5 3d 00 80 c3 3e 00 a0 e1 3e 00 60 21 be
       0.10424805 0.38183594 0.44067383 -0.15759277
000120 00 60 40 be 00 a0 65 bd 00 c0 8a be 00 c0 19 3f
       -0.18786621 -0.05606079 -0.2709961 0.60058594
000130 00 c0 5a 3f 00 c0 5c be 00 80 87 3f 00 a0 25 3f
       0.8544922 -0.21557617 1.0585938 0.64697266
000140 00 40 a8 bd 00 c0 26 bf 00 20 b1 bf 00 40 e5 3e
       -0.08215332 -0.6513672 -1.3837891 0.4477539
000150 00 20 96 bf 00 a0 fc bf 00 c0 11 bf 00 c0 00 bf
       -1.1728516 -1.9736328 -0.56933594 -0.5029297
000160 00 40 16 be 00 80 93 be 00 00 f8 3f 00 a0 37 40
       -0.14672852 -0.28808594 1.9375 2.8691406
000170 00 00 69 bf 00 20 3d 40 00 c0 26 40 00 60 b9 bf
       -0.91015625 2.9550781 2.6054688 -1.4482422
000180 00 e0 34 bf 00 40 d1 be 00 60 79 be 00 e0 53 3f
       -0.70654297 -0.4086914 -0.24353027 0.8276367
000190 00 40 bf 3c 00 00 11 3f 00 a0 52 3f 00 60 dd 3e
       0.023345947 0.56640625 0.8227539 0.43237305
0001a0 00 80 be 3f 00 40 00 3f 00 20 a4 3f 00 80 22 3f
       1.4882812 0.50097656 1.2822266 0.6347656
0001b0 00 20 a6 be 00 20 3f c0 00 00 c8 be 00 80 12 3f
       -0.3244629 -2.9863281 -0.390625 0.5722656
0001c0 00 80 09 c0 00 40 9f 3f 00 00 dd 3e 00 60 e6 3f
       -2.1484375 1.2441406 0.43164062 1.7998047
0001d0 00 a0 3e 3f 00 20 77 3f 00 60 00 3e 00 40 3b bd
       0.7446289 0.96533203 0.12536621 -0.045715332
0001e0 00 80 6d 3f 00 00 4f bf 00 80 d7 3e 00 60 98 3f
       0.9277344 -0.80859375 0.42089844 1.1904297
0001f0 00 20 65 3f 00 20 a6 3f 00 e0 a5 bf 00 20 6b bf
       0.89501953 1.2978516 -1.2958984 -0.91845703
000200 00 40 94 bd 00 40 39 c0 00 60 bc 3e 00 00 24 bd
       -0.072387695 -2.8945312 0.36791992 -0.040039062
000210 00 20 8b be 00 00 68 3f 00 c0 eb 3d 00 00 dc 3f
       -0.27172852 0.90625 0.115112305 1.71875
000220 00 20 f8 3e 00 c0 ae bf 00 20 e8 3e 00 20 25 40
       0.48461914 -1.3652344 0.45336914 2.5800781
000230 00 a0 8d bf 00 00 80 bd 00 00 92 3e 00 c0 49 be
       -1.1064453 -0.0625 0.28515625 -0.19702148
000240 00 40 9a bf 00 60 01 c0 00 20 e1 bf 00 80 65 bf
       -1.2050781 -2.0214844 -1.7587891 -0.8964844
000250 00 40 24 bf 00 e0 ed be 00 e0 95 3f 00 a0 f0 3f
       -0.64160156 -0.4645996 1.1708984 1.8798828
000260 00 80 af 3c 00 c0 2f 3f 00 c0 0a bf 00 e0 9e 3f
       0.02142334 0.68652344 -0.5419922 1.2412109
000270 00 60 f2 3f 00 a0 12 bf 00 60 60 be 00 e0 c2 3f
       1.8935547 -0.5727539 -0.21911621 1.5224609
000280 00 20 70 3f 00 40 5a bf 00 e0 01 c0 00 e0 02 c0
       0.9379883 -0.85253906 -2.0292969 -2.0449219
000290 00 20 21 3f 00 40 02 c0 00 80 a5 c0 00 e0 d3 bf
       0.62939453 -2.0351562 -5.171875 -1.6552734
0002a0 00 e0 81 be 00 c0 7d bf 00 e0 61 be 00 20 59 3d
       -0.2536621 -0.99121094 -0.22058105 0.053009033
0002b0 00 a0 bf be 00 60 94 3f 00 60 b8 bf 00 c0 7a c0
       -0.37426758 1.1591797 -1.4404297 -3.9179688
0002c0 00 40 6f bf 00 00 b0 be 00 80 86 bf 00 80 90 bf
       -0.9345703 -0.34375 -1.0507812 -1.1289062
0002d0 00 a0 4d bf 00 40 79 3d 00 00 60 3e 00 c0 43 3e
       -0.80322266 0.06085205 0.21875 0.19116211
0002e0 00 a0 ca 3f 00 e0 51 3e 00 a0 a0 3f 00 e0 d0 3d
       1.5830078 0.20495605 1.2548828 0.101989746
0002f0 00 60 b6 bf 00 a0 b3 bf 00 40 7b be 00 40 2f be
       -1.4248047 -1.4033203 -0.24536133 -0.17114258
000300 00 80 62 bf 00 80 f6 bf 00 a0 11 bf 00 c0 33 bf
       -0.8847656 -1.9257812 -0.56884766 -0.70214844
000310 00 a0 7f bf 00 c0 84 bd 00 80 f4 3f 00 80 95 3f
       -0.99853516 -0.064819336 1.9101562 1.1679688
000320 00 a0 8c 3f 00 80 14 40 00 80 a5 3f 00 20 6a 3f
       1.0986328 2.3203125 1.2929688 0.9145508
000330 00 00 d1 3f 00 20 ac 3f 00 00 69 3f 00 e0 15 c0
       1.6328125 1.3447266 0.91015625 -2.3417969
000340 00 20 a1 be 00 60 f3 be 00 20 40 bf 00 40 5c 40
       -0.31469727 -0.4753418 -0.7504883 3.4414062
000350 00 e0 52 3f 00 e0 50 bf 00 00 63 3f 00 a0 ed bd
       0.82373047 -0.81591797 0.88671875 -0.11602783
000360 00 60 a0 bf 00 80 d6 3f 00 20 af 3f 00 60 7a 3e
       -1.2529297 1.6757812 1.3681641 0.24450684
000370 00 40 9a 3f 00 00 ea be 00 e0 f5 3d 00 e0 31 3f
       1.2050781 -0.45703125 0.12005615 0.6948242
000380 00 00 a2 be 00 80 89 c0 00 60 19 c0 00 a0 79 bf
       -0.31640625 -4.296875 -2.3964844 -0.97509766
000390 00 60 2f c0 00 20 6a bf 00 00 57 be 00 c0 18 c0
       -2.7402344 -0.9145508 -0.20996094 -2.3867188
0003a0 00 60 ae bf 00 40 bd be 00 40 35 3e 00 20 88 bf
       -1.3623047 -0.3696289 0.17700195 -1.0634766
0003b0 00 00 19 bf 00 a0 d9 be 00 e0 69 c0 00 a0 e3 be
       -0.59765625 -0.42504883 -3.6542969 -0.44458008
0003c0 00 20 e1 3c 00 20 80 bf 00 e0 b8 3c 00 20 36 40
       0.02748108 -1.0009766 0.022567749 2.8457031
0003d0 00 00 23 40 00 a0 98 3f 00 00 e6 3f 00 20 f7 bf
       2.546875 1.1923828 1.796875 -1.9306641
0003e0 00 80 05 3e 00 40 e2 3f 00 80 93 be 00 40 62 be
       0.1303711 1.7675781 -0.28808594 -0.22094727
0003f0 00 c0 2d 3f 00 c0 23 40 00 80 51 40 00 80 48 be
       0.67871094 2.5585938 3.2734375 -0.19580078

const_fold_opt__482 f4 [96, 1, 3, 3]
000000 00 e0 04 40 00 60 0e 40 00 a0 90 3f 00 40 bb 3e
       2.0761719 2.2246094 1.1298828 0.36572266
000010 00 e0 7a 3e 00 00 3f 3f 00 c0 b6 be 00 c0 53 3c
       0.24499512 0.74609375 -0.3569336 0.012924194
000020 00 e0 c1 3e 00 c0 3c 3f 00 a0 89 3e 00 00 3e 3f
       0.3786621 0.7373047 0.26879883 0.7421875
000030 00 c0 b0 3f 00 a0 00 bf 00 20 ae 3f 00 a0 f7 3e
       1.3808594 -0.5024414 1.3603516 0.48364258
000040 00 a0 95 3f 00 60 4f 3f 00 60 33 bf 00 60 b8 bf
       1.1689453 0.8100586 -0.7006836 -1.4404297
000050 00 e0 79 bf 00 40 9a bf 00 40 2a bf 00 60 90 bf
       -0.9760742 -1.2050781 -0.66503906 -1.1279297
000060 00 a0 90 bf 00 00 c1 be 00 20 0b 3e 00 e0 e8 bf
       -1.1298828 -0.37695312 0.13586426 -1.8193359
000070 00 40 30 c0 00 40 ca bd 00 80 a9 bf 00 20 52 c0
       -2.7539062 -0.09875488 -1.3242188 -3.2832031
000080 00 20 5f 3e 00 80 a7 3c 00 80 2b 40 00 60 21 40
       0.21789551 0.020446777 2.6796875 2.5214844
000090 00 40 d9 3f 00 e0 da 3f 00 00 01 40 00 40 67 3f
       1.6972656 1.7099609 2.015625 0.9033203
0000a0 00 60 01 40 00 20 1a 40 00 80 bd 3f 00 e0 09 40
       2.0214844 2.4082031 1.4804688 2.1542969
0000b0 00 20 89 3f 00 a0 96 3c 00 e0 c6 3e 00 e0 9f 3e
       1.0712891 0.01838684 0.38842773 0.31225586
0000c0 00 c0 91 3c 00 00 a2 3f 00 a0 11 3f 00 a0 31 3e
       0.017791748 1.265625 0.56884766 0.17346191
0000d0 00 40 ff 3e 00 00 f5 3c 00 60 8c bd 00 40 b7 3f
       0.49853516 0.029907227 -0.06854248 1.4316406
0000e0 00 20 da 3e 00 80 9c bf 00 a0 12 40 00 60 22 3f
       0.4260254 -1.2226562 2.2910156 0.63427734
0000f0 00 80 8e bf 00 a0 bc bd 00 e0 3d be 00 00 c8 bd
       -1.1132812 -0.09210205 -0.1854248 -0.09765625
000100 00 20 26 bf 00 00 a2 3d 00 60 29 bf 00 40 13 c0
       -0.6489258 0.07910156 -0.6616211 -2.3007812
000110 00 e0 be bd 00 a0 2b bd 00 20 fa bd 00 a0 35 3e
       -0.09320068 -0.041900635 -0.12213135 0.17736816
000120 00 00 cb 3d 00 c0 a0 3e 00 40 2f 3f 00 a0 17 3e
       0.099121094 0.31396484 0.6845703 0.14807129
000130 00 00 7e 40 00 60 ba 3e 00 00 bf 3d 00 60 94 3d
       3.96875 0.36401367 0.09326172 0.07244873
000140 00 40 2a bd 00 40 5c be 00 e0 39 bd 00 40 6f 3e
       -0.04156494 -0.21508789 -0.04537964 0.23364258
000150 00 60 f7 bf 00 60 a4 bf 00 c0 14 3f 00 40 b1 bf
       -1.9326172 -1.2841797 0.5810547 -1.3847656
000160 00 20 9c bf 00 00 7a 3e 00 80 4d 3e 00 20 cc 3f
       -1.2197266 0.24414062 0.2006836 1.5947266
000170 00 20 8e be 00 60 30 40 00 40 69 40 00 a0 ae 3b
       -0.2775879 2.7558594 3.6445312 0.005329132
000180 00 e0 4f 3f 00 c0 ba 3e 00 20 5f bf 00 e0 6a be
       0.8120117 0.3647461 -0.87158203 -0.22937012
000190 00 20 82 bf 00 00 cf be 00 80 d7 3e 00 00 d6 bf
       -1.0166016 -0.40429688 0.42089844 -1.671875
0001a0 00 40 14 bf 00 20 32 be 00 20 d7 3d 00 c0 0f be
       -0.57910156 -0.1739502 0.105041504 -0.14038086
0001b0 00 e0 01 3f 00 00 ca 3f 00 c0 2f 3f 00 00 71 3f
       0.5073242 1.578125 0.68652344 0.94140625
0001c0 00 00 85 40 00 60 92 3f 00 20 b8 be 00 20 c2 3f
       4.15625 1.1435547 -0.35961914 1.5166016
0001d0 00 c0 dd bf 00 e0 0a 3e 00 00 bb be 00 20 25 be
       -1.7324219 0.13562012 -0.36523438 -0.16125488
0001e0 00 80 84 3e 00 00 97 bf 00 40 51 3c 00 00 30 40
       0.25878906 -1.1796875 0.012771606 2.75
0001f0 00 e0 97 3f 00 20 06 3f 00 e0 c9 be 00 80 31 3f
       1.1865234 0.5239258 -0.3942871 0.6933594
000200 00 20 02 40 00 60 42 bf 00 40 6e 3f 00 00 ca 3f
       2.0332031 -0.75927734 0.93066406 1.578125
000210 00 00 0e 3e 00 80 59 3f 00 a0 0a 40 00 20 17 3f
       0.13867188 0.8496094 2.1660156 0.59033203
000220 00 20 fe 3f 00 20 46 3e 00 80 79 be 00 00 cf bf
       1.9853516 0.19348145 -0.24365234 -1.6171875
000230 00 20 e4 3e 00 e0 5f c0 00 e0 6d c0 00 c0 03 40
       0.44555664 -3.4980469 -3.7167969 2.0585938
000240 00 40 00 bf 00 40 91 3e 00 60 58 bf 00 a0 1a 3e
       -0.50097656 0.2836914 -0.84521484 0.15100098
000250 00 a0 7b 40 00 20 96 3c 00 c0 ee 3e 00 a0 28 be
       3.9316406 0.018325806 0.4663086 -0.16467285
000260 00 a0 e6 be 00 e0 19 bd 00 e0 aa 3e 00 a0 9b bc
       -0.45043945 -0.03756714 0.33374023 -0.018997192
000270 00 c0 ce be 00 a0 38 c0 00 00 f5 3e 00 00 74 be
       -0.4038086 -2.8847656 0.47851562 -0.23828125
000280 00 20 9f bd 00 40 23 3e 00 40 d7 3e 00 60 17 3f
       -0.077697754 0.15942383 0.42041016 0.5913086
000290 00 40 2c bf 00 80 d4 3f 00 20 40 3f 00 20 9c 3e
       -0.67285156 1.6601562 0.7504883 0.30493164
0002a0 00 60 f5 3f 00 a0 80 3f 00 a0 2d 3d 00 a0 0d bf
       1.9169922 1.0048828 0.042388916 -0.55322266
0002b0 00 40 1b be 00 e0 24 3f 00 40 a8 bf 00 00 0f c0
       -0.15161133 0.64404297 -1.3144531 -2.234375
0002c0 00 20 6d 3e 00 40 58 bf 00 e0 03 40 00 00 df 3f
       0.23156738 -0.84472656 2.0605469 1.7421875
0002d0 00 80 4d bf 00 40 6f 3f 00 a0 ae bf 00 80 ec bf
       -0.8027344 0.9345703 -1.3642578 -1.8476562
0002e0 00 e0 6d 3f 00 60 b2 bf 00 80 69 bf 00 80 60 bf
       0.9291992 -1.3935547 -0.9121094 -0.8769531
0002f0 00 a0 f7 bc 00 80 8d 3f 00 20 3e 3d 00 20 41 bf
       -0.030227661 1.1054688 0.046417236 -0.75439453
000300 00 20 4c 3f 00 20 b9 be 00 a0 38 bf 00 40 df 3d
       0.7973633 -0.36157227 -0.7211914 0.10900879
000310 00 e0 83 bf 00 c0 2d 3e 00 20 d5 3e 00 e0 5d 3e
       -1.0302734 0.16967773 0.41625977 0.2166748
000320 00 00 1d c0 00 a0 33 3f 00 60 06 3f 00 20 e3 bf
       -2.453125 0.70166016 0.52490234 -1.7744141
000330 00 60 11 3e 00 60 41 bd 00 e0 ba bf 00 60 c5 3f
       0.14196777 -0.047210693 -1.4599609 1.5419922
000340 00 80 df be 00 20 f1 bf 00 80 8a 3f 00 a0 87 be
       -0.43652344 -1.8837891 1.0820312 -0.26489258
000350 00 60 b7 bf 00 20 d2 3e 00 a0 38 3f 00 c0 60 3e
       -1.4326172 0.4104004 0.7211914 0.21948242
000360 00 a0 81 3f 00 e0 2c 3f 00 60 81 3e 00 80 10 40
       1.0126953 0.67529297 0.25268555 2.2578125
000370 00 e0 29 40 00 00 ec be 00 a0 9f 3f 00 c0 32 bf
       2.6542969 -0.4609375 1.2470703 -0.6982422
000380 00 20 10 bf 00 20 59 3f 00 80 3c 40 00 20 88 3f
       -0.5629883 0.84814453 2.9453125 1.0634766
000390 00 c0 fa be 00 a0 24 40 00 80 a6 3f 00 80 c4 bf
       -0.4897461 2.5722656 1.3007812 -1.5351562
0003a0 00 e0 96 bd 00 80 a1 3d 00 40 14 c0 00 60 1d bf
       -0.07366943 0.07885742 -2.3164062 -0.6147461
0003b0 00 00 b5 bf 00 80 91 be 00 a0 2b 40 00 00 3a 3f
       -1.4140625 -0.2841797 2.6816406 0.7265625
0003c0 00 80 b4 3e 00 20 90 3f 00 e0 13 3d 00 e0 0a be
       0.35253906 1.1259766 0.036102295 -0.13562012
0003d0 00 c0 89 be 00 40 99 bf 00 40 5a 3d 00 c0 c1 bf
       -0.26904297 -1.1972656 0.05328369 -1.5136719
0003e0 00 80 fb be 00 40 d2 3e 00 60 26 be 00 20 e8 3d
       -0.49121094 0.41064453 -0.16247559 0.113342285
0003f0 00 20 1f bf 00 40 0c 40 00 80 41 40 00 c0 5b be
       -0.62158203 2.1914062 3.0234375 -0.21459961

const_fold_opt__480 f4 [96, 1, 3, 3]
000000 00 e0 6d be 00 e0 7a 40 00 c0 8a 40 00 00 29 c0
       -0.2322998 3.9199219 4.3359375 -2.640625
000010 00 00 95 3f 00 c0 25 40 00 00 94 c0 00 20 da bf
       1.1640625 2.5898438 -4.625 -1.7041016
000020 00 20 5f bd 00 60 9e be 00 00 c4 be 00 80 dd 3e
       -0.054473877 -0.30932617 -0.3828125 0.4326172
000030 00 a0 60 bf 00 40 e0 be 00 e0 4e bf 00 e0 a4 bf
       -0.8774414 -0.43798828 -0.80810547 -1.2880859
000040 00 c0 18 3d 00 a0 5b 3e 00 00 10 40 00 c0 1d 40
       0.03729248 0.21447754 2.25 2.4648438
000050 00 a0 8f 3f 00 c0 66 3f 00 e0 1e 40 00 00 68 3f
       1.1220703 0.9013672 2.4824219 0.90625
000060 00 a0 40 bf 00 80 35 3f 00 20 2c 3f 00 a0 e7 bf
       -0.7524414 0.7089844 0.6723633 -1.8095703
000070 00 00 dd 3d 00 80 2b bf 00 e0 3d bf 00 c0 0f 40
       0.107910156 -0.6699219 -0.7416992 2.2460938
000080 00 00 9c be 00 00 46 bf 00 00 23 be 00 a0 25 be
       -0.3046875 -0.7734375 -0.15917969 -0.16174316
000090 00 40 70 c0 00 60 f2 3e 00 80 97 3e 00 e0 61 bf
       -3.7539062 0.47338867 0.29589844 -0.8823242
0000a0 00 c0 29 40 00 c0 71 3e 00 e0 49 3f 00 40 60 3f
       2.6523438 0.23608398 0.7885742 0.87597656
0000b0 00 80 0d 3e 00 40 97 3e 00 a0 a4 3e 00 40 92 3e
       0.1381836 0.29541016 0.3215332 0.28564453
0000c0 00 00 a6 3e 00 20 9c bf 00 20 b2 3e 00 c0 8f 3e
       0.32421875 -1.2197266 0.3479004 0.28076172
0000d0 00 60 c0 3e 00 c0 8f 3e 00 e0 81 bf 00 00 be bf
       0.37573242 0.28076172 -1.0146484 -1.484375
0000e0 00 e0 04 bf 00 20 d0 be 00 e0 b7 3f 00 60 96 bf
       -0.51904297 -0.40649414 1.4365234 -1.1748047
0000f0 00 80 80 bf 00 e0 00 3f 00 60 6e be 00 40 a9 3e
       -1.0039062 0.50341797 -0.23278809 0.3305664
000100 00 20 7c 3f 00 40 7a 3f 00 20 ab 3d 00 00 d3 3e
       0.9848633 0.97753906 0.08355713 0.41210938
000110 00 60 d5 3f 00 80 9d 3e 00 e0 07 40 00 80 2f 3f
       1.6669922 0.3076172 2.1230469 0.6855469
000120 00 00 b1 3d 00 80 72 bf 00 20 76 bd 00 a0 61 be
       0.08642578 -0.9472656 -0.06008911 -0.22033691
000130 00 80 1c bf 00 40 0f 3c 00 20 13 bf 00 20 b4 3e
       -0.6113281 0.008743286 -0.57470703 0.35180664
000140 00 c0 d3 3e 00 a0 3b 3e 00 40 33 3f 00 60 35 ba
       0.41357422 0.18322754 0.7001953 -0.0006918907
000150 00 00 e4 3e 00 e0 af 3f 00 60 bc 3e 00 60 31 bb
       0.4453125 1.3740234 0.36791992 -0.0027065277
000160 00 40 53 3f 00 60 38 be 00 00 32 c0 00 c0 3c bf
       0.8251953 -0.18005371 -2.78125 -0.7373047
000170 00 80 3e bf 00 00 79 bf 00 80 5f 3f 00 a0 25 bf
       -0.7441406 -0.97265625 0.8730469 -0.64697266
000180 00 00 91 be 00 40 c7 be 00 c0 0f 3f 00 c0 83 3e
       -0.28320312 -0.38916016 0.56152344 0.25732422
000190 00 60 ee 3d 00 c0 83 3d 00 a0 ee 3e 00 20 98 be
       0.11639404 0.064331055 0.46606445 -0.29711914
0001a0 00 00 7c 3e 00 80 94 bc 00 80 17 3f 00 e0 55 3e
       0.24609375 -0.018127441 0.5917969 0.2088623
0001b0 00 a0 a2 3f 00 20 b2 3f 00 a0 0a 3f 00 60 dc 3f
       1.2705078 1.3916016 0.5415039 1.7216797
0001c0 00 00 0b c0 00 c0 67 3f 00 c0 90 3f 00 00 d4 3f
       -2.171875 0.90527344 1.1308594 1.65625
0001d0 00 20 d6 3f 00 e0 84 3d 00 60 2f 3e 00 e0 16 3e
       1.6728516 0.06488037 0.17126465 0.14733887
0001e0 00 80 37 bf 00 80 d0 3d 00 a0 8b bd 00 60 74 bf
       -0.7167969 0.10180664 -0.06817627 -0.95458984
0001f0 00 e0 0d 3e 00 40 89 bf 00 00 ac be 00 40 2f bf
       0.1385498 -1.0722656 -0.3359375 -0.6845703
000200 00 00 e2 3d 00 60 3e bf 00 20 a5 3f 00 e0 7a bf
       0.11035156 -0.74365234 1.2900391 -0.97998047
000210 00 e0 b9 be 00 20 82 bf 00 40 20 3e 00 40 15 3f
       -0.3630371 -1.0166016 0.15649414 0.5830078
000220 00 c0 0b 40 00 20 3e be 00 c0 fe 3e 00 00 b3 3f
       2.1835938 -0.18566895 0.4975586 1.3984375
000230 00 40 fa be 00 60 4d 3e 00 e0 8d bf 00 20 5b bd
       -0.48876953 0.20056152 -1.1083984 -0.053497314
000240 00 60 88 bf 00 a0 2b c0 00 a0 f4 bf 00 c0 51 c0
       -1.0654297 -2.6816406 -1.9111328 -3.2773438
000250 00 e0 84 40 00 60 27 c0 00 20 ed bf 00 20 5e c0
       4.1523438 -2.6152344 -1.8525391 -3.4707031
000260 00 00 f1 bf 00 c0 dc 3e 00 80 16 bf 00 20 05 bf
       -1.8828125 0.43115234 -0.5878906 -0.52001953
000270 00 c0 08 3e 00 00 32 bf 00 80 b2 be 00 80 3b be
       0.13354492 -0.6953125 -0.3486328 -0.18310547
000280 00 40 0a be 00 00 88 3d 00 e0 be bf 00 c0 bf bf
       -0.13500977 0.06640625 -1.4912109 -1.4980469
000290 00 00 cb bf 00 20 94 bf 00 80 6b bf 00 a0 87 bf
       -1.5859375 -1.1572266 -0.9199219 -1.0595703
0002a0 00 c0 bf be 00 c0 21 bf 00 60 7f bf 00 80 3d 3e
       -0.37451172 -0.63183594 -0.9975586 0.1850586
0002b0 00 a0 85 3f 00 a0 47 3f 00 40 5e 3f 00 c0 06 c0
       1.0439453 0.77978516 0.86816406 -2.1054688
0002c0 00 80 7d 3f 00 40 1b 3f 00 60 d1 3e 00 40 a5 3e
       0.9902344 0.6064453 0.40893555 0.3227539
0002d0 00 e0 3d 3e 00 20 3c c0 00 a0 14 bf 00 60 ee bf
       0.1854248 -2.9394531 -0.5805664 -1.8623047
0002e0 00 c0 41 c0 00 80 ab 3f 00 20 1a bf 00 a0 e6 3e
       -3.0273438 1.3398438 -0.6020508 0.45043945
0002f0 00 a0 60 bf 00 00 06 bf 00 c0 5c bf 00 a0 b1 3f
       -0.8774414 -0.5234375 -0.8623047 1.3876953
000300 00 e0 a0 be 00 80 4b c0 00 c0 60 3f 00 00 94 3f
       -0.31420898 -3.1796875 0.8779297 1.15625
000310 00 60 66 3f 00 40 df 3e 00 a0 c8 3c 00 a0 c0 3f
       0.89990234 0.43603516 0.024490356 1.5048828
000320 00 20 65 3f 00 a0 cd 3f 00 20 9f bf 00 c0 57 bf
       0.89501953 1.6064453 -1.2431641 -0.84277344
000330 00 e0 98 3f 00 00 b3 3d 00 00 97 bf 00 60 28 3d
       1.1943359 0.087402344 -1.1796875 0.041107178
000340 00 c0 9c 3e 00 20 a5 3f 00 00 71 be 00 80 5f bf
       0.30615234 1.2900391 -0.23535156 -0.8730469
000350 00 80 01 3f 00 80 91 3c 00 20 1b 3d 00 40 76 3e
       0.5058594 0.01776123 0.037872314 0.24047852
000360 00 00 31 c0 00 a0 15 c0 00 40 92 bf 00 80 cc bf
       -2.765625 -2.3378906 -1.1425781 -1.5976562
000370 00 60 5e 40 00 40 3f bf 00 c0 7d bf 00 a0 32 bf
       3.4746094 -0.7470703 -0.99121094 -0.6977539
000380 00 e0 90 3e 00 80 ec 3f 00 80 f7 3e 00 40 79 be
       0.28295898 1.8476562 0.48339844 -0.2434082
000390 00 40 29 40 00 60 3a c0 00 c0 fe be 00 e0 3c 40
       2.6445312 -2.9121094 -0.4975586 2.9511719
0003a0 00 60 9e 3f 00 a0 d3 3e 00 40 59 bf 00 80 f1 bf
       1.2373047 0.41333008 -0.8486328 -1.8867188
0003b0 00 20 cd bb 00 20 57 bf 00 80 05 40 00 60 67 3f
       -0.006259918 -0.84033203 2.0859375 0.9038086
0003c0 00 60 b1 be 00 a0 29 3f 00 80 93 be 00 a0 96 be
       -0.34643555 0.66259766 -0.28808594 -0.29418945
0003d0 00 80 ee be 00 00 3d be 00 20 98 be 00 80 61 3f
       -0.4658203 -0.18457031 -0.29711914 0.8808594
0003e0 00 80 31 bf 00 80 ce be 00 20 f8 be 00 00 9f be
       -0.6933594 -0.4033203 -0.48461914 -0.31054688
0003f0 00 40 ac 3f 00 20 41 bf 00 00 b1 bf 00 20 ea 3f
       1.3457031 -0.75439453 -1.3828125 1.8291016

const_fold_opt__478 f4 [42, 1, 3, 3]
000000 00 a0 af bf 00 c0 88 bf 00 c0 77 be 00 40 2f bf
       -1.3720703 -1.0683594 -0.24194336 -0.6845703
000010 00 80 27 bf 00 e0 98 bd 00 40 94 3d 00 20 1a 3e
       -0.6542969 -0.074645996 0.072387695 0.1505127
000020 00 40 43 3d 00 80 5d 3f 00 40 8b 3f 00 c0 8f 3f
       0.047668457 0.8652344 1.0878906 1.1230469
000030 00 80 83 3f 00 80 ef 3f 00 e0 a7 3f 00 e0 48 3f
       1.0273438 1.8710938 1.3115234 0.78466797
000040 00 a0 a7 3f 00 00 3e 3f 00 60 ad 3f 00 60 c7 3f
       1.3095703 0.7421875 1.3544922 1.5576172
000050 00 20 28 3f 00 00 6a 3f 00 00 a1 3f 00 00 7f 3f
       0.6567383 0.9140625 1.2578125 0.99609375
000060 00 c0 85 bc 00 20 c0 3e 00 40 ff 3e 00 e0 d4 3e
       -0.016326904 0.37524414 0.49853516 0.41577148
000070 00 80 4d 3e 00 20 44 bd 00 20 62 3f 00 e0 81 3f
       0.2006836 -0.04788208 0.8833008 1.0146484
000080 00 c0 9b 3e 00 20 2b 3f 00 20 22 3f 00 80 79 3e
       0.30419922 0.66845703 0.6333008 0.24365234
000090 00 40 c2 bf 00 20 f1 bf 00 80 61 bf 00 00 d9 bf
       -1.5175781 -1.8837891 -0.8808594 -1.6953125
0000a0 00 40 e2 bf 00 00 2a bf 00 40 1a bf 00 80 e7 be
       -1.7675781 -0.6640625 -0.60253906 -0.45214844
0000b0 00 e0 5f be 00 60 b9 3d 00 60 f0 3e 00 a0 11 3f
       -0.21862793 0.09051514 0.46948242 0.56884766
0000c0 00 00 0e 3f 00 e0 81 3f 00 e0 6c 3f 00 40 43 3f
       0.5546875 1.0146484 0.92529297 0.7626953
0000d0 00 c0 aa 3f 00 a0 65 3f 00 20 b6 be 00 c0 2f bf
       1.3339844 0.89697266 -0.3557129 -0.68652344
0000e0 00 a0 37 bc 00 c0 a1 be 00 40 2b 3f 00 e0 8b 3f
       -0.011207581 -0.31591797 0.6689453 1.0927734
0000f0 00 20 2e 3f 00 a0 bd 3f 00 60 75 3f 00 20 aa 3e
       0.6801758 1.4814453 0.9584961 0.3322754
000100 00 60 c7 3f 00 40 d9 3f 00 a0 98 3f 00 a0 31 40
       1.5576172 1.6972656 1.1923828 2.7753906
000110 00 e0 22 40 00 c0 81 3f 00 80 f3 3f 00 e0 b3 3f
       2.5449219 1.0136719 1.9023438 1.4052734
000120 00 e0 f4 bc 00 60 bd 3e 00 40 fe 3e 00 80 d6 3e
       -0.029891968 0.36987305 0.49658203 0.4189453
000130 00 80 9a 3f 00 60 6b 3f 00 c0 41 3f 00 c0 8d 3f
       1.2070312 0.9194336 0.75683594 1.1074219
000140 00 00 39 3f 00 20 a6 3f 00 20 a8 3f 00 40 35 3f
       0.72265625 1.2978516 1.3134766 0.7080078
000150 00 e0 d1 3f 00 80 0a 40 00 40 25 3f 00 e0 e6 3e
       1.6396484 2.1640625 0.6455078 0.45092773
000160 00 80 a6 3f 00 c0 ee 3e 00 40 08 bf 00 80 0e bf
       1.3007812 0.4663086 -0.53222656 -0.5566406
000170 00 e0 03 bf 00 40 90 bf 00 a0 b7 bf 00 20 17 bf
       -0.5151367 -1.1269531 -1.4345703 -0.59033203
000180 00 00 9c bf 00 40 7c bf 00 20 3d be 00 20 93 3e
       -1.21875 -0.98535156 -0.18469238 0.28735352
000190 00 60 8a 3f 00 a0 08 3f 00 e0 53 3f 00 80 b2 3f
       1.0810547 0.5336914 0.8276367 1.3945312
0001a0 00 80 61 3f 00 e0 55 3f 00 a0 75 3f 00 c0 b0 3e
       0.8808594 0.8354492 0.95947266 0.34521484
0001b0 00 00 89 bd 00 60 20 3f 00 00 5e 3f 00 60 87 3f
       -0.06689453 0.62646484 0.8671875 1.0576172
0001c0 00 e0 00 40 00 a0 d9 3f 00 40 92 3f 00 00 cd 3f
       2.0136719 1.7001953 1.1425781 1.6015625
0001d0 00 20 63 3f 00 60 99 bf 00 c0 98 bf 00 60 2e be
       0.88720703 -1.1982422 -1.1933594 -0.17028809
0001e0 00 a0 a7 bf 00 40 a0 bf 00 00 a0 be 00 c0 09 bf
       -1.3095703 -1.2519531 -0.3125 -0.53808594
0001f0 00 a0 10 bf 00 a0 a9 bd 00 e0 6e 3f 00 00 e1 3f
       -0.5649414 -0.08282471 0.93310547 1.7578125
000200 00 a0 85 3f 00 80 91 3f 00 40 f8 3f 00 c0 ad 3f
       1.0439453 1.1367188 1.9394531 1.3574219
000210 00 00 29 3f 00 e0 a1 3f 00 20 78 3f 00 60 84 3f
       0.66015625 1.2646484 0.9692383 1.0341797
000220 00 40 7a 3f 00 60 b3 3e 00 c0 a2 3f 00 80 e0 3f
       0.97753906 0.3503418 1.2714844 1.7539062
000230 00 40 c6 3e 00 a0 22 3f 00 20 bf 3f 00 60 24 3f
       0.38720703 0.6352539 1.4931641 0.64208984
000240 00 c0 1e 3f 00 00 f3 3f 00 60 82 3f 00 00 a1 3f
       0.6201172 1.8984375 1.0185547 1.2578125
000250 00 60 df 3f 00 c0 8f 3f 00 00 17 3f 00 00 5f 3f
       1.7451172 1.1230469 0.58984375 0.87109375
000260 00 00 12 3f 00 60 e9 bf 00 20 e4 bf 00 e0 20 bf
       0.5703125 -1.8232422 -1.7822266 -0.62841797
000270 00 a0 e2 bf 00 c0 05 c0 00 c0 aa be 00 a0 fb be
       -1.7705078 -2.0898438 -0.3334961 -0.49145508
000280 00 40 86 bf 00 60 53 3f 00 40 3a 3f 00 00 70 3f
       -1.0488281 0.8256836 0.72753906 0.9375
000290 00 c0 5f 3f 00 00 d0 3e 00 c0 dc be 00 80 6f bf
       0.87402344 0.40625 -0.43115234 -0.9355469
0002a0 00 60 96 be 00 a0 8f bf 00 40 bb bf 00 a0 14 be
       -0.29370117 -1.1220703 -1.4628906 -0.1451416
0002b0 00 40 12 bf 00 40 4b bf 00 a0 62 bf 00 20 d3 bf
       -0.57128906 -0.7939453 -0.8852539 -1.6494141
0002c0 00 40 90 bf 00 20 82 bf 00 e0 a0 bf 00 a0 13 bf
       -1.1269531 -1.0166016 -1.2568359 -0.57666016
0002d0 00 60 a5 3f 00 60 02 40 00 a0 8a 3f 00 60 d2 3e
       1.2919922 2.0371094 1.0830078 0.41088867
0002e0 00 80 6a 3f 00 80 99 3f 00 60 ce 3d 00 20 ab 3e
       0.9160156 1.1992188 0.10076904 0.33422852
0002f0 00 20 f2 3e 00 c0 67 3f 00 c0 a1 3f 00 e0 33 3f
       0.4729004 0.90527344 1.2636719 0.7026367
000300 00 20 95 3f 00 60 da 3f 00 40 6d 3f 00 80 03 3f
       1.1650391 1.7060547 0.9267578 0.5136719
000310 00 e0 65 3f 00 60 20 3f 00 60 ea 3e 00 00 37 3f
       0.8979492 0.62646484 0.45776367 0.71484375
000320 00 80 51 3f 00 40 80 3e 00 00 94 3f 00 40 a6 3f
       0.8183594 0.25048828 1.15625 1.2988281
000330 00 c0 74 3f 00 e0 87 3f 00 00 04 3f 00 20 d6 3d
       0.9560547 1.0615234 0.515625 0.10455322
000340 00 c0 95 3f 00 c0 9d 3f 00 80 8a 3e 00 a0 3d 3f
       1.1699219 1.2324219 0.2705078 0.74072266
000350 00 40 30 3f 00 e0 75 3c 00 60 7f 3d 00 80 fe 3d
       0.68847656 0.015007019 0.062347412 0.12426758
000360 00 80 62 3f 00 c0 ac 3f 00 40 32 3f 00 00 cb 3f
       0.8847656 1.3496094 0.69628906 1.5859375
000370 00 c0 1d 40 00 60 b8 3f 00 e0 8b 3f 00 c0 cf 3f
       2.4648438 1.4404297 1.0927734 1.6230469
000380 00 c0 89 3f 00 00 80 3f 00 00 8c 3f 00 a0 dd 3e
       1.0761719 1.0 1.09375 0.43286133
000390 00 40 f2 3f 00 60 17 40 00 60 ca 3f 00 00 8b 3f
       1.8925781 2.3652344 1.5810547 1.0859375
0003a0 00 40 e9 3f 00 a0 cf 3f 00 c0 8e 3f 00 60 2b 3f
       1.8222656 1.6220703 1.1152344 0.6694336
0003b0 00 80 66 3d 00 e0 21 3f 00 80 aa 3f 00 00 78 3f
       0.056274414 0.6323242 1.3320312 0.96875
0003c0 00 e0 2d 3e 00 c0 5c 3f 00 20 30 3f 00 60 d2 3d
       0.1697998 0.8623047 0.6879883 0.10272217
0003d0 00 a0 d2 bd 00 c0 0c be 00 a0 e3 3e 00 60 9f 3f
       -0.10284424 -0.13745117 0.44458008 1.2451172
0003e0 00 c0 7e 3f 00 20 5d 3f 00 c0 d5 3f 00 00 ac 3f
       0.9951172 0.86376953 1.6699219 1.34375
0003f0 00 40 fc bf 00 40 b1 be 00 20 5a 3f 00 00 85 bf
       -1.9707031 -0.3461914 0.8520508 -1.0390625

const_fold_opt__476 f4 [96, 88, 1, 1]
000000 00 e0 46 3b 00 20 9d bc 00 e0 af bb 00 80 b7 b9
       0.0030345917 -0.019180298 -0.005367279 -0.00034999847
000010 00 a0 a5 bb 00 40 91 3c 00 60 51 3b 00 00 9d 3c
       -0.005054474 0.017730713 0.003194809 0.019165039
000020 00 60 14 bc 00 00 47 3c 00 60 80 3b 00 60 51 bb
       -0.009056091 0.012145996 0.003917694 -0.003194809
000030 00 00 2e bc 00 c0 3b bb 00 a0 7b bb 00 00 87 3b
       -0.010620117 -0.0028648376 -0.0038394928 0.004119873
000040 00 20 67 3b 00 00 35 3a 00 e0 21 bc 00 80 b2 bb
       0.0035266876 0.0006904602 -0.009880066 -0.0054473877
000050 00 80 46 bc 00 60 d0 bb 00 20 43 bb 00 c0 e1 ba
       -0.0121154785 -0.0063591003 -0.0029773712 -0.0017223358
000060 00 e0 21 bc 00 00 5e 3c 00 80 eb bb 00 a0 df b9
       -0.009880066 0.013549805 -0.0071868896 -0.00042653084
000070 00 80 0f bc 00 80 17 3c 00 80 3b bc 00 c0 92 bb
       -0.008758545 0.009246826 -0.011444092 -0.0044784546
000080 00 c0 3f bc 00 c0 8f ba 00 00 22 bc 00 a0 c7 ba
       -0.011703491 -0.0010967255 -0.009887695 -0.0015230179
000090 00 40 31 bb 00 a0 64 bb 00 00 f7 3a 00 20 5d 3c
       -0.0027046204 -0.0034885406 0.0018844604 0.013496399
0000a0 00 20 02 bc 00 20 1c bc 00 80 ff ba 00 c0 30 bc
       -0.0079422 -0.009529114 -0.0019493103 -0.010787964
0000b0 00 80 92 3c 00 e0 6e 3a 00 80 d5 bb 00 00 24 3c
       0.0178833 0.0009112358 -0.006515503 0.010009766
0000c0 00 60 f3 ba 00 00 7c 3a 00 60 1f bc 00 e0 66 3c
       -0.0018568039 0.0009613037 -0.009727478 0.014091492
0000d0 00 a0 3c 3c 00 e0 83 bb 00 60 6b 3a 00 20 88 3c
       0.011512756 -0.0040245056 0.00089788437 0.016616821
0000e0 00 20 96 39 00 60 22 3a 00 a0 8b 3b 00 80 de 3b
       0.0002863407 0.00061941147 0.004261017 0.006790161
0000f0 00 e0 d7 ba 00 80 16 bc 00 80 a7 3b 00 00 3f 3b
       -0.0016469955 -0.009185791 0.0051116943 0.0029144287
000100 00 00 28 bc 00 40 3c 3b 00 80 ac 3a 00 00 5a 3b
       -0.010253906 0.002872467 0.0013160706 0.003326416
000110 00 60 c2 3b 00 e0 ca 3a 00 e0 8d 3c 00 00 06 3c
       0.0059318542 0.0015478134 0.017318726 0.008178711
000120 00 a0 4d 3b 00 40 23 b8 00 20 b2 bb 00 80 36 bb
       0.0031375885 -3.8921833e-05 -0.0054359436 -0.002784729
000130 00 80 cc 3b 00 00 02 bb 00 c0 02 bb 00 80 24 bb
       0.0062408447 -0.0019836426 -0.0019950867 -0.0025100708
000140 00 20 82 ba 00 80 c8 3b 00 20 00 3a 00 c0 7e bc
       -0.000992775 0.0061187744 0.0004887581 -0.015548706
000150 00 e0 e8 bb 00 a0 61 3b 00 80 95 ba 00 20 6f bb
       -0.007106781 0.0034427643 -0.0011405945 -0.003648758
000160 00 20 72 3a 00 80 40 3c 00 20 0a bc 00 60 85 bb
       0.0009236336 0.011749268 -0.008430481 -0.004070282
000170 00 e0 12 bd 00 00 b2 bd 00 00 96 bc 00 00 7e bc
       -0.035858154 -0.08691406 -0.018310547 -0.01550293
000180 00 40 24 bd 00 e0 c1 bb 00 e0 ee bb 00 00 18 3d
       -0.040100098 -0.0059165955 -0.0072898865 0.037109375
000190 00 e0 40 bc 00 20 95 bc 00 00 dd 3a 00 00 33 bc
       -0.011772156 -0.018203735 0.0016860962 -0.010925293
0001a0 00 e0 d9 bb 00 80 28 3c 00 20 05 bd 00 40 ce 3c
       -0.0066490173 0.010284424 -0.03250122 0.025177002
0001b0 00 40 84 bc 00 a0 b5 3b 00 80 b8 bc 00 c0 38 3c
       -0.016143799 0.005542755 -0.022521973 0.011276245
0001c0 00 00 a6 bb 00 60 15 3d 00 00 0f bd 00 80 48 bd
       -0.005065918 0.036468506 -0.03491211 -0.048950195
0001d0 00 a0 a4 bc 00 20 69 3c 00 40 94 bc 00 c0 5a b9
       -0.020095825 0.014228821 -0.018096924 -0.00020861626
0001e0 00 20 15 bd 00 a0 3e 3d 00 00 6e 3b 00 c0 ed 39
       -0.03640747 0.046539307 0.0036315918 0.00045347214
0001f0 00 c0 3b 3d 00 20 aa bc 00 00 96 3c 00 c0 f8 3c
       0.045837402 -0.020767212 0.018310547 0.03036499
000200 00 00 40 34 00 60 fc 3b 00 20 e6 3c 00 a0 af bc
       1.7881393e-07 0.007701874 0.02809143 -0.021438599
000210 00 40 7b 3c 00 a0 c8 bb 00 60 82 3c 00 40 a1 bc
       0.015335083 -0.006122589 0.015914917 -0.019683838
000220 00 a0 44 3b 00 40 51 bc 00 80 00 bc 00 00 1e 3d
       0.0030002594 -0.012771606 -0.007843018 0.03857422
000230 00 60 3f 3d 00 c0 12 3c 00 00 5f bb 00 e0 14 3d
       0.046722412 0.008956909 -0.00340271 0.036346436
000240 00 20 53 bd 00 40 c6 bb 00 c0 24 3c 00 80 1a 3d
       -0.05154419 -0.00605011 0.010055542 0.037719727
000250 00 00 c4 3c 00 20 c6 bb 00 80 bc 3b 00 c0 e2 bc
       0.023925781 -0.006046295 0.0057525635 -0.027679443
000260 00 c0 cd 3c 00 60 df 3c 00 a0 04 3b 00 e0 53 bd
       0.025115967 0.027267456 0.002023697 -0.051727295
000270 00 40 a8 3c 00 00 d2 39 00 e0 2f bc 00 40 04 3d
       0.02053833 0.0004005432 -0.010734558 0.032287598
000280 00 40 e3 bc 00 80 ef 3c 00 80 74 b8 00 60 ef bc
       -0.027740479 0.02923584 -5.8293343e-05 -0.029220581
000290 00 00 8e 3c 00 20 c2 bc 00 e0 a6 bb 00 60 88 bc
       0.017333984 -0.0236969 -0.005092621 -0.016647339
0002a0 00 a0 d3 bc 00 40 8e bc 00 c0 ab bc 00 40 eb bc
       -0.02583313 -0.017364502 -0.020965576 -0.028717041
0002b0 00 e0 01 bd 00 c0 7c bc 00 80 ec bb 00 00 7f bc
       -0.031707764 -0.015426636 -0.007217407 -0.015563965
0002c0 00 80 a2 3c 00 e0 cd bc 00 40 46 3d 00 40 9d 3b
       0.019836426 -0.025131226 0.04840088 0.004798889
0002d0 00 e0 c2 3c 00 40 b7 3c 00 40 79 3c 00 80 e0 3c
       0.023788452 0.022369385 0.015213013 0.027404785
0002e0 00 20 b0 bc 00 20 28 3d 00 c0 2a 3c 00 a0 9c bc
       -0.021499634 0.041046143 0.010421753 -0.019119263
0002f0 00 60 a6 3b 00 a0 82 bc 00 20 08 bd 00 60 1c bc
       0.005077362 -0.015945435 -0.033233643 -0.009544373
000300 00 20 30 bc 00 c0 09 bc 00 60 92 bc 00 e0 d5 bc
       -0.010749817 -0.008407593 -0.017868042 -0.026107788
000310 00 c0 4e bc 00 a0 ba bc 00 e0 8a 3c 00 a0 21 bc
       -0.012619019 -0.022781372 0.016952515 -0.009864807
000320 00 60 01 bb 00 c0 6e 3b 00 40 83 bc 00 e0 8f 3c
       -0.0019741058 0.003643036 -0.016021729 0.017562866
000330 00 a0 a2 bb 00 40 b6 bc 00 c0 b0 bc 00 60 31 bc
       -0.004962921 -0.022247314 -0.021575928 -0.010826111
000340 00 e0 a5 bc 00 00 a5 3b 00 e0 2d bc 00 60 0c bc
       -0.020248413 0.0050354004 -0.010612488 -0.00856781
000350 00 40 8e 3b 00 a0 48 3b 00 a0 a3 3c 00 80 97 b7
       0.0043411255 0.0030612946 0.019973755 -1.8060207e-05
000360 00 00 44 3c 00 80 c6 bc 00 80 1e bd 00 80 48 bd
       0.011962891 -0.024230957 -0.03869629 -0.048950195
000370 00 60 37 bb 00 e0 c1 bb 00 40 12 bc 00 a0 62 3c
       -0.0027980804 -0.0059165955 -0.008926392 0.013832092
000380 00 40 d2 3b 00 20 b0 bc 00 60 0a bc 00 e0 a6 3c
       0.006416321 -0.021499634 -0.00844574 0.020370483
000390 00 e0 2c bc 00 60 af bc 00 80 43 3b 00 20 03 3d
       -0.010551453 -0.021408081 0.0029830933 0.03201294
0003a0 00 a0 b4 3c 00 60 8e 3b 00 80 91 ba 00 40 67 3d
       0.02204895 0.00434494 -0.0011100769 0.05645752
0003b0 00 c0 a0 bb 00 e0 c9 3c 00 80 1d ba 00 60 a1 bb
       -0.0049057007 0.024642944 -0.0006008148 -0.004924774
0003c0 00 e0 5c bb 00 00 6b bb 00 40 69 3c 00 60 e0 bc
       -0.003370285 -0.0035858154 0.01423645 -0.027389526
0003d0 00 80 7c bc 00 e0 92 3c 00 60 38 3a 00 80 06 bc
       -0.015411377 0.017929077 0.0007033348 -0.0082092285
0003e0 00 60 34 bc 00 40 56 3c 00 60 98 3b 00 20 35 3d
       -0.011009216 0.013076782 0.004650116 0.04421997
0003f0 00 40 d7 bb 00 20 ad 3c 00 c0 ed bb 00 00 ed bc
       -0.0065689087 0.021133423 -0.007255554 -0.028930664

const_fold_opt__474 f4 [96, 96, 1, 1]
000000 00 c0 80 3c 00 a0 43 3c 00 80 38 bd 00 60 2c 3c
       0.015716553 0.011940002 -0.045043945 0.010520935
000010 00 60 06 bd 00 c0 30 3d 00 40 9d bc 00 c0 4f 3c
       -0.032806396 0.043151855 -0.019195557 0.012680054
000020 00 40 29 3d 00 80 d3 3c 00 c0 1f bc 00 80 b2 bd
       0.0413208 0.025817871 -0.009750366 -0.0871582
000030 00 e0 29 3d 00 60 ae bb 00 00 0a bb 00 e0 75 bd
       0.04147339 -0.0053215027 -0.002105713 -0.060028076
000040 00 20 b0 bc 00 20 40 3c 00 a0 ea bc 00 40 77 bc
       -0.021499634 0.011726379 -0.028640747 -0.015090942
000050 00 40 50 bd 00 20 30 bc 00 e0 01 3d 00 40 14 bd
       -0.050842285 -0.010749817 0.031707764 -0.036193848
000060 00 c0 95 bc 00 80 1c 3d 00 00 84 3c 00 20 68 bc
       -0.01828003 0.038208008 0.016113281 -0.014167786
000070 00 80 15 bd 00 c0 e0 3c 00 e0 83 bc 00 60 c3 3b
       -0.036499023 0.027435303 -0.016098022 0.005962372
000080 00 20 b1 bd 00 20 22 3d 00 20 43 3c 00 20 ea bc
       -0.08648682 0.0395813 0.011909485 -0.028579712
000090 00 a0 45 3b 00 60 29 3d 00 80 5b bc 00 80 be 3c
       0.0030155182 0.04135132 -0.013397217 0.023254395
0000a0 00 20 02 3d 00 a0 79 3d 00 00 02 bd 00 e0 0b 3d
       0.0317688 0.060943604 -0.03173828 0.03414917
0000b0 00 e0 40 3d 00 40 2e 3b 00 e0 27 3c 00 e0 ca bc
       0.047088623 0.002658844 0.010246277 -0.024765015
0000c0 00 80 6c bc 00 e0 9e bc 00 00 ea bb 00 40 d1 ba
       -0.014434814 -0.01939392 -0.0071411133 -0.0015964508
0000d0 00 00 51 3d 00 80 42 3d 00 e0 5a bd 00 80 eb 3c
       0.05102539 0.04748535 -0.05343628 0.028747559
0000e0 00 40 35 3c 00 20 1e 3d 00 20 23 3d 00 00 fd 3c
       0.011062622 0.038604736 0.03982544 0.030883789
0000f0 00 60 a8 3c 00 20 42 3c 00 00 bc 3c 00 20 9e 3b
       0.020553589 0.01184845 0.022949219 0.004825592
000100 00 00 da bc 00 a0 eb 3b 00 40 42 3b 00 40 1f 3c
       -0.026611328 0.0071907043 0.0029640198 0.009719849
000110 00 60 85 bd 00 20 45 3c 00 a0 5c bd 00 40 83 3c
       -0.06512451 0.012031555 -0.053863525 0.016021729
000120 00 c0 47 3b 00 c0 d1 bc 00 00 81 3d 00 e0 f7 bb
       0.003047943 -0.025604248 0.06298828 -0.0075645447
000130 00 40 2a 3c 00 60 2d bd 00 40 5a 3d 00 a0 0a 3d
       0.010391235 -0.04232788 0.05328369 0.033843994
000140 00 c0 f3 3a 00 20 7e bc 00 a0 3e 3d 00 a0 5c bd
       0.0018596649 -0.015510559 0.046539307 -0.053863525
000150 00 20 b5 bd 00 e0 47 bc 00 c0 29 3d 00 a0 c6 bb
       -0.08843994 -0.012199402 0.04144287 -0.006061554
000160 00 e0 77 3d 00 e0 90 3d 00 a0 75 bd 00 80 9c bd
       0.060516357 0.070739746 -0.05996704 -0.076416016
000170 00 00 4f 3c 00 80 1c bd 00 80 9d 39 00 60 90 bd
       0.012634277 -0.038208008 0.0003004074 -0.070495605
000180 00 40 cb bc 00 20 ee 3b 00 80 48 bc 00 a0 83 bd
       -0.024810791 0.0072669983 -0.012237549 -0.06427002
000190 00 60 2f 3d 00 40 e0 3c 00 a0 3e bc 00 60 13 3a
       0.042816162 0.027374268 -0.011634827 0.000562191
0001a0 00 c0 37 bd 00 20 b9 3d 00 60 85 3c 00 20 08 bd
       -0.04486084 0.09039307 0.016281128 -0.033233643
0001b0 00 60 91 3b 00 c0 7d 3c 00 60 e7 3c 00 60 c6 3c
       0.004436493 0.015487671 0.028244019 0.024215698
0001c0 00 80 f4 3b 00 60 97 bd 00 80 d3 bb 00 20 0c bc
       0.007461548 -0.073913574 -0.006454468 -0.008552551
0001d0 00 40 50 3c 00 e0 4c bd 00 00 7d bd 00 20 20 3d
       0.012710571 -0.05001831 -0.061767578 0.039093018
0001e0 00 40 93 3c 00 c0 ab 3d 00 e0 01 3d 00 a0 d4 bc
       0.017974854 0.083862305 0.031707764 -0.0259552
0001f0 00 20 d2 bc 00 e0 0a 3d 00 40 b9 3c 00 00 62 bc
       -0.025650024 0.03390503 0.022613525 -0.013793945
000200 00 e0 19 bb 00 40 0b 3d 00 a0 06 3c 00 c0 d0 bb
       -0.0023479462 0.033996582 0.008216858 -0.0063705444
000210 00 e0 bb 3b 00 40 dc bc 00 20 0a bd 00 40 62 bd
       0.00573349 -0.026885986 -0.033721924 -0.055236816
000220 00 40 a5 bc 00 60 51 bc 00 40 81 3a 00 e0 bc bd
       -0.02017212 -0.012779236 0.0009860992 -0.09222412
000230 00 40 86 3c 00 a0 35 3c 00 20 76 bd 00 a0 8f bc
       0.01638794 0.01108551 -0.06008911 -0.017532349
000240 00 e0 26 bd 00 c0 2e bd 00 e0 a4 bd 00 20 d3 bb
       -0.040740967 -0.042663574 -0.08050537 -0.0064430237
000250 00 60 44 3d 00 e0 82 3c 00 e0 6d 3d 00 60 9d 3c
       0.047943115 0.015975952 0.05807495 0.019210815
000260 00 a0 7b bb 00 40 fa 3b 00 00 a6 b9 00 00 b7 bc
       -0.0038394928 0.007637024 -0.00031661987 -0.022338867
000270 00 a0 b5 3b 00 00 9f 3c 00 40 23 bc 00 c0 54 3b
       0.005542755 0.01940918 -0.009963989 0.0032463074
000280 00 e0 85 bc 00 60 ef bb 00 e0 c3 bc 00 a0 15 be
       -0.016342163 -0.0073051453 -0.023910522 -0.14611816
000290 00 60 a8 3d 00 80 5e 3d 00 20 0a 3d 00 40 b0 bd
       0.082214355 0.05432129 0.033721924 -0.08605957
0002a0 00 80 51 bd 00 60 14 bd 00 80 e7 3a 00 00 71 bd
       -0.05114746 -0.036224365 0.0017662048 -0.05883789
0002b0 00 40 0e 3a 00 e0 88 bd 00 c0 02 3c 00 80 10 3d
       0.0005426407 -0.066833496 0.007980347 0.03527832
0002c0 00 80 2b bd 00 00 fd 3d 00 00 e2 bb 00 a0 c4 bd
       -0.041870117 0.123535156 -0.0068969727 -0.0960083
0002d0 00 00 9f bc 00 a0 8e bd 00 e0 57 bb 00 a0 67 bc
       -0.01940918 -0.06964111 -0.003293991 -0.014137268
0002e0 00 20 00 be 00 60 58 3d 00 a0 f3 3a 00 00 e7 3c
       -0.12512207 0.052825928 0.0018587112 0.028198242
0002f0 00 60 15 bd 00 40 3a bd 00 c0 a2 bc 00 80 09 bd
       -0.036468506 -0.04547119 -0.019866943 -0.033569336
000300 00 00 da 3b 00 60 4a bc 00 60 c6 3c 00 80 7b 3a
       0.006652832 -0.01235199 0.024215698 0.00095939636
000310 00 80 ac ba 00 60 5f bd 00 a0 cf 3b 00 40 d7 bc
       -0.0013160706 -0.054534912 0.006336212 -0.026275635
000320 00 a0 a5 bb 00 00 2d 3d 00 20 35 3c 00 20 e2 bc
       -0.005054474 0.042236328 0.011054993 -0.02760315
000330 00 40 37 bd 00 c0 03 3d 00 00 63 bc 00 40 fb 3b
       -0.04473877 0.032165527 -0.0138549805 0.0076675415
000340 00 00 53 3a 00 20 5b 3c 00 80 02 3d 00 40 16 bd
       0.0008049011 0.013374329 0.03186035 -0.03668213
000350 00 c0 db bc 00 e0 5b bd 00 20 f2 3c 00 a0 ae bc
       -0.026824951 -0.05368042 0.029556274 -0.021316528
000360 00 00 87 3c 00 40 8c 3d 00 20 5d 3c 00 c0 71 3c
       0.016479492 0.068481445 0.013496399 0.014755249
000370 00 40 29 bd 00 80 bc 3d 00 a0 08 3c 00 20 97 bc
       -0.0413208 0.092041016 0.008338928 -0.018447876
000380 00 80 3c bd 00 a0 56 3d 00 80 53 3d 00 40 5d bc
       -0.046020508 0.05239868 0.051635742 -0.013504028
000390 00 20 51 bd 00 a0 ca bc 00 c0 ff bc 00 c0 b4 bc
       -0.05105591 -0.024734497 -0.031219482 -0.022064209
0003a0 00 e0 c4 3b 00 e0 2e bc 00 e0 95 bc 00 a0 0b bb
       0.006008148 -0.010673523 -0.018295288 -0.0021305084
0003b0 00 40 e4 3c 00 60 59 bc 00 e0 04 3d 00 00 16 bc
       0.027862549 -0.013267517 0.032440186 -0.009155273
0003c0 00 40 9a 3c 00 60 b5 bc 00 c0 d3 3b 00 c0 0e 3d
       0.018829346 -0.022140503 0.006462097 0.034851074
0003d0 00 40 44 3d 00 e0 9f 3c 00 80 ad 3d 00 40 b6 bc
       0.047912598 0.019515991 0.0847168 -0.022247314
0003e0 00 a0 96 3c 00 80 cb 3c 00 00 2d 3d 00 60 6e 3d
       0.01838684 0.024841309 0.042236328 0.05819702
0003f0 00 a0 d2 bc 00 e0 8d bd 00 e0 16 3b 00 00 b8 35
       -0.02571106 -0.0692749 0.0023021698 1.3709068e-06
